…
2, pretrained='', rel_emb_dim=10, rnn_padding=True, rnn_type='lstm', seed=1234, test_mode=False, use_cuda=True)
Load vocabulary from ./data/vocab...
Vocabulary size: 33382
Load pos vocabulary from ./data/pos_vocab...
POS vocabulary size: 51
Load ner vocabulary from ./data/ner_vocab...
NER vocabulary size: 20
Load relation vocabulary from ./data/rel_vocab...
Rel vocabulary size: 39
Load 19462 examples from ../data/train-data-processed.json...
Load 1020 examples from ../data/trial-data-processed.json...
Load 2822 examples from ../data/dev-data-processed.json...
Use cuda: True
TriAN(
  (embedding): Embedding(33382, 300, padding_idx=0)
  (pos_embedding): Embedding(51, 12, padding_idx=0)
  (ner_embedding): Embedding(20, 8, padding_idx=0)
  (four_lang_embedding): Embedding(101, 10, padding_idx=0)
  (p_q_emb_match): SeqAttnMatch(
    (linear): Linear(in_features=300, out_features=300, bias=True)
  )
  (c_q_emb_match): SeqAttnMatch(
    (linear): Linear(in_features=300, out_features=300, bias=True)
  )
  (c_p_emb_match): SeqAttnMatch(
    (linear): Linear(in_features=300, out_features=300, bias=True)
  )
  (doc_rnn): StackedBRNN(
    (rnns): ModuleList(
      (0): LSTM(645, 96, bidirectional=True)
    )
  )
  (question_rnn): StackedBRNN(
    (rnns): ModuleList(
      (0): LSTM(322, 96, bidirectional=True)
    )
  )
  (choice_rnn): StackedBRNN(
    (rnns): ModuleList(
      (0): LSTM(900, 96, bidirectional=True)
    )
  )
  (c_self_attn): LinearSeqAttn(
    (linear): Linear(in_features=192, out_features=1, bias=True)
  )
  (q_self_attn): LinearSeqAttn(
    (linear): Linear(in_features=192, out_features=1, bias=True)
  )
  (p_q_attn): BilinearSeqAttn(
    (linear): Linear(in_features=192, out_features=192, bias=True)
  )
  (p_c_bilinear): Linear(in_features=192, out_features=192, bias=True)
  (q_c_bilinear): Linear(in_features=192, out_features=192, bias=True)
)
Number of parameters:  2046884
Trained model will be saved to ./checkpoint/1234-2018-05-13T09:59:43.246602.mdl
Epoch 0...
Namespace(batch_size=32, doc_layers=1, dropout_emb=0.4, dropout_rnn_output=0.4, embedding_file='../data/glove.840B.300d.txt', epoch=50, finetune_topk=10, four_lang_emb_dim=10, gpu='0', grad_clipping=10.0, hidden_size=96, lr=0.002, ner_emb_dim=8, optimizer='adamax', pos_emb_dim=12, pretrained='', rel_emb_dim=10, rnn_padding=True, rnn_type='lstm', seed=1234, test_mode=False, use_cuda=True)
…
