…
 rnn_type='lstm', seed=1234, test_mode=False, use_cuda=True)
Load vocabulary from ./data/vocab...
Vocabulary size: 33382
Load pos vocabulary from ./data/pos_vocab...
POS vocabulary size: 51
Load ner vocabulary from ./data/ner_vocab...
NER vocabulary size: 20
Load relation vocabulary from ./data/rel_vocab...
Rel vocabulary size: 39
Load 19462 examples from ../data/train-data-processed.json...
Load 1020 examples from ../data/trial-data-processed.json...
Load 2822 examples from ../data/dev-data-processed.json...
Use cuda: True
WARNING:root:WARN: Duplicate embedding found for ;
TriAN(
  (embedding): Embedding(33382, 300, padding_idx=0)
  (pos_embedding): Embedding(51, 12, padding_idx=0)
  (ner_embedding): Embedding(20, 8, padding_idx=0)
  (rel_embedding): Embedding(39, 10, padding_idx=0)
  (four_lang_embedding): Embedding(101, 10, padding_idx=0)
  (p_q_emb_match): SeqAttnMatch(
    (linear): Linear(in_features=300, out_features=300, bias=True)
  )
  (c_q_emb_match): SeqAttnMatch(
    (linear): Linear(in_features=300, out_features=300, bias=True)
  )
  (c_p_emb_match): SeqAttnMatch(
    (linear): Linear(in_features=300, out_features=300, bias=True)
  )
  (doc_rnn): StackedBRNN(
    (rnns): ModuleList(
      (0): LSTM(665, 96, bidirectional=True)
    )
  )
  (question_rnn): StackedBRNN(
    (rnns): ModuleList(
      (0): LSTM(322, 96, bidirectional=True)
    )
  )
  (choice_rnn): StackedBRNN(
    (rnns): ModuleList(
      (0): LSTM(900, 96, bidirectional=True)
    )
  )
  (c_self_attn): LinearSeqAttn(
    (linear): Linear(in_features=192, out_features=1, bias=True)
  )
  (q_self_attn): LinearSeqAttn(
    (linear): Linear(in_features=192, out_features=1, bias=True)
  )
  (p_q_attn): BilinearSeqAttn(
    (linear): Linear(in_features=192, out_features=192, bias=True)
  )
  (p_c_bilinear): Linear(in_features=192, out_features=192, bias=True)
  (q_c_bilinear): Linear(in_features=192, out_features=192, bias=True)
)
Number of parameters:  2062634
Trained model will be saved to ./checkpoint/1234-2018-04-30T18:03:50.508327.mdl
Epoch 0...
/userhome/student/kinga/commonsense-rc-modified/commonsense-rc/src/layers.py:198: UserWarning: Implicit dimension choice for softmax has been deprecated. Change the call to include dim=X as an argument.
  alpha_flat = F.softmax(scores.view(-1, y.size(1)))
…
